data.pth (torch, 7658 bytes, 6 tensors)

l1.weight f4 [8, 96]
000000 3c c3 23 3f d8 91 c1 3e 42 cb 7e 3e d0 2f 54 be
       0.6396978 0.37806582 0.24882224 -0.20721364
000010 67 6b a2 be af 76 d5 be 46 be 71 be 52 b4 28 3f
       -0.31722566 -0.4169211 -0.2360774 0.65900147
000020 8d a7 05 3f 63 bd 1f 3f a0 c8 21 bf fe 25 ca 3d
       0.5220879 0.62398356 -0.63196754 0.09870528
000030 dc cf 49 be b8 ed 27 bd b2 9f 78 be bc 20 5a be
       -0.19708198 -0.04099819 -0.24279669 -0.2130155
000040 74 38 dc 3e a2 08 8c be 44 66 17 be 1e f8 31 be
       0.4301182 -0.27350336 -0.14785105 -0.17379805
000050 fc fd a2 be c7 f3 de 3e 45 e1 a3 be 4d 5e 29 3f
       -0.318344 0.43545362 -0.32007805 0.66159517
000060 2a 94 0b be 8a f4 01 be 2e 60 37 3e a6 73 9e 3e
       -0.13630739 -0.1269094 0.17907783 0.30947608
000070 53 af 3e 3f 2c f6 fa 3e 52 b4 70 bd 4b 10 25 bd
       0.74486274 0.4901594 -0.058765717 -0.04029874
000080 43 3f 4c 3e 21 eb c7 be d6 d1 1a bf 28 a2 07 3f
       0.19946007 -0.39046577 -0.60476434 0.52981806
000090 5d b3 80 bd 9e ec 35 bf 5a 9d fe 3e d6 74 1b 3f
       -0.06284211 -0.71064174 0.49729425 0.6072515
0000a0 3b e9 35 bf 55 fd 35 bf 3f 34 c5 be fd 7e 87 3e
       -0.71059006 -0.7108968 -0.38516423 0.26464072
0000b0 64 d3 4d 3f 99 4c 83 bd 27 3a 44 3f 44 c9 7c be
       0.8040068 -0.06411094 0.76651233 -0.24686152
0000c0 df 9d 87 bd 1b a2 1b 3f ce ec ca bd 5e 13 b3 be
       -0.066219084 0.6079423 -0.09908448 -0.34975713
0000d0 41 e5 ae 3e cb d9 90 3e a8 1c 0c be 38 1e 43 be
       0.34159282 0.28291163 -0.13682806 -0.19054496
0000e0 64 b3 c0 be 21 fa 1f 3e 5c ac fd bd 58 e7 d3 3e
       -0.37636864 0.1562276 -0.123863906 0.4138744
0000f0 c0 23 27 be 70 7e 8f be e9 55 26 be 38 6f c9 be
       -0.16322231 -0.28026152 -0.1624371 -0.39342666
000100 0e 67 a4 bc 1f 48 0d be 95 8a 39 be e4 8d 3e be
       -0.020068672 -0.13797043 -0.18119271 -0.18608814
000110 ed 7e 91 3e 06 fe a0 be bf 2c 48 3f 0b 57 8e 3e
       0.2841715 -0.31443805 0.7819328 0.27800784
000120 bb 20 1a 3f b2 bd eb 3e eb aa 4f 3f 51 6d 60 3c
       0.6020619 0.46043164 0.81120175 0.013697938
000130 0e 4d 0c 3e 2e 30 ad be 1b d3 96 3f 3c d4 fb bc
       0.13701269 -0.3382582 1.1783174 -0.03074085
000140 e7 30 2d be 9e 2c fc 3b 07 24 86 be 98 c4 19 3f
       -0.16913186 0.0076957485 -0.26199362 0.60065603
000150 b9 ae 0a 3f c5 9c a3 3e fd aa 0d 3f fa c7 81 3e
       0.54172856 0.31955543 0.5533903 0.25347883
000160 05 57 95 3e fd 3d 81 3e 00 f8 df 3e c0 9c 1d bf
       0.29167953 0.25242606 0.43743896 -0.61567307
000170 14 02 77 be 32 fc 25 be 54 dc 28 3d 48 28 c7 be
       -0.24121886 -0.16209486 0.041225746 -0.3889792
000180 0d 19 e0 3e 83 74 98 be 24 a5 b9 be f9 c6 85 be
       0.43769112 -0.2977639 -0.36258805 -0.26128367
000190 fb 89 25 3f a0 f0 cc 3e cc 5f 8c bd ad 76 15 3f
       0.64663666 0.40027332 -0.06854209 0.5838421
0001a0 bd 92 c5 3e f3 36 a2 be 6c cd 6a 3f ae 77 b4 be
       0.38588515 -0.31682548 0.917197 -0.35247558
0001b0 4d 45 66 be f1 af 1b bf de bf 34 be 37 17 08 bf
       -0.22487374 -0.6081534 -0.17651317 -0.53160423
0001c0 17 f5 e4 be 62 86 34 3f 96 a5 10 3f f1 3f c4 3e
       -0.4471824 0.7051755 0.56502664 0.38330033
0001d0 59 6d 1a be ff 19 ee be 93 4e d1 3e f5 f0 03 bf
       -0.15080775 -0.46504208 0.4088026 -0.51539546
0001e0 35 9c 31 3f c9 17 bf 3e f0 4d 45 bf 9c c6 80 be
       0.6937898 0.37322834 -0.7707205 -0.25151527
0001f0 ef b9 3d bf 48 1f ec be f4 ad 77 be 1d 06 b5 be
       -0.7411184 -0.46117616 -0.24187452 -0.35356227
000200 3b 95 9c bd d1 e0 df 3e 0d 91 5d 3f 65 94 71 be
       -0.07645651 0.4372621 0.86549455 -0.23591764
000210 92 54 06 3f 6d ca 23 3f 69 e7 23 3e 44 c1 55 be
       0.52472794 0.6398075 0.16006245 -0.20874506
000220 d9 f5 31 3f 9a e1 18 3f 0a 0d 8b 3e cd 6a a3 be
       0.6951576 0.5971924 0.27158386 -0.3191742
000230 7c 18 2b bf 57 da 27 3f 64 fb 37 be 32 59 03 bd
       -0.66834235 0.65567535 -0.17966992 -0.032067485
000240 95 ef bf 3e 64 26 b0 be be 72 87 bd 89 25 12 3f
       0.37487474 -0.3440429 -0.06613682 0.57088524
000250 3b 70 a9 be f8 3d 85 3e 51 68 0d 3f 9e 85 89 be
       -0.33093438 0.2602384 0.552373 -0.26859754
000260 59 50 c6 bd 08 dc c2 bc 20 eb 16 be 7d db e4 be
       -0.09683294 -0.02378656 -0.1473813 -0.44698706
000270 4f c2 1f bf 7f b5 9c bd b7 5f da bd ae 4f 05 3f
       -0.62405866 -0.07651805 -0.106627874 0.52074707
000280 eb a7 60 be a9 e2 00 3f eb c4 c1 3e cf c7 75 be
       -0.21939056 0.50345856 0.3784555 -0.24002002
000290 80 eb 3c 3a b6 3b 21 3f 73 16 3f bf 72 d1 bd be
       0.0007206723 0.62981737 -0.7464363 -0.37073857
0002a0 c9 e8 03 bf 6d 40 b1 be 6b 90 31 3f f1 9b 75 be
       -0.51527077 -0.34619465 0.6936099 -0.23985268
0002b0 57 d4 1d be c0 9b 85 be e5 0b 15 3f 70 ab 0c 3f
       -0.15413032 -0.2609539 0.58221275 0.5494909
0002c0 35 84 c7 be fc 68 21 be c0 77 c2 be 19 90 af 3e
       -0.38968053 -0.15762705 -0.37981987 0.34289625
0002d0 b3 5f d9 be 5a 1c b7 bd 67 49 ae be da f5 73 bd
       -0.42455825 -0.089409545 -0.34040377 -0.059560634
0002e0 bc bb 5d 3e 9c ad f6 bc 73 40 5c be ff d4 c6 3e
       0.21653646 -0.03011208 -0.2150896 0.38834378
0002f0 ce 36 30 be 01 4d 01 be 0a fd a3 3e 03 f8 86 be
       -0.17208406 -0.12627031 0.3202899 -0.26361093
000300 4b 3e f0 3e 85 14 98 3d 2c bc 60 3c e3 9b 0f bf
       0.46922526 0.07425789 0.013716739 -0.5609724
000310 a3 86 a4 3e bd 45 e6 3e 39 f5 da 3e 8e 0e ef bd
       0.3213397 0.4497508 0.42765215 -0.11672698
000320 2a e0 99 3c e7 93 cb 3e d0 4c 11 bf 28 c3 12 be
       0.018783648 0.39761278 -0.5675783 -0.14332259
000330 66 d6 e1 be aa a1 2a bf 81 d4 ce 3e aa 1a 86 3e
       -0.44108886 -0.6665293 0.40396503 0.26192218
000340 9e 12 e2 be ee f7 1c bf 49 ee 78 bf 83 4d 56 be
       -0.4415483 -0.6131581 -0.97238594 -0.20928006
000350 f7 84 e7 be 66 87 f9 3e 6f e8 73 3e 03 41 1f 3f
       -0.45218632 0.48736113 0.23819135 0.62208575
000360 df d0 4c bf 86 db 54 be 7b 68 04 3e 5e 00 ea 3e
       -0.8000621 -0.20786867 0.12930481 0.45703405
000370 58 89 2b 3f 63 7d 0b 3f e5 8b b8 3e e6 de b1 3e
       0.67006445 0.544882 0.3604423 0.3474037
000380 83 68 81 3e e4 7c 91 3e 10 76 0f bf 1c 16 07 be
       0.2527505 0.28415596 -0.56039524 -0.13192028
000390 0b a1 ab bd d1 ba 07 3f 84 2c df 3e 2d f9 91 3e
       -0.08380326 0.53019434 0.4358865 0.2851042
0003a0 51 b3 e8 3e 0c ec ec 3e 55 6c 4b 3e fc 33 80 3e
       0.45449308 0.4627384 0.19865544 0.2503966
0003b0 3f b4 2d 3f 99 a4 47 3e 39 f4 aa 3e 08 34 1e 3f
       0.6785316 0.19496383 0.33389452 0.61798143
0003c0 34 df 16 bd 59 cf 13 be 11 88 db 3e 2d c2 ad be
       -0.036833957 -0.14434566 0.42877248 -0.33937207
0003d0 11 55 a7 3e c7 85 9a 3e 67 d4 78 bf f9 24 ed be
       0.32682088 0.3018019 -0.971991 -0.4631727
0003e0 9c 75 00 3f 80 6b af 3e 8c 8d ac 3d 20 b0 45 3e
       0.5017946 0.34261703 0.084254354 0.19305468
0003f0 76 1e 31 bf 19 75 a5 be 4f f0 9f be 14 75 37 bd
       -0.69187105 -0.323159 -0.31238028 -0.04478939

l1.bias f4 [8]
000000 56 e9 35 3f 8a f5 7a 3f 91 8a 52 3f c6 fc 8a 3f
       0.7105917 0.9803091 0.82242686 1.085839
000010 a6 27 24 3f 59 2d 31 3f 8d 16 80 3f 5d fe 5b 3f
       0.64123 0.6920982 1.0006882 0.85935

l2.weight f4 [8, 8]
000000 56 b4 f2 3e cf 24 9c bd 05 b0 ed 3f bd d7 d2 3f
       0.4740321 -0.07624208 1.8569342 1.6472088
000010 83 18 a2 be 5a 7b 4a 3f 5c e9 35 3f 8a cc b4 bf
       -0.31659326 0.7909447 0.71059203 -1.412492
000020 55 de b0 bf d4 ec 30 3e 6e cc 01 bf c9 3d 9c 3f
       -1.381785 0.17277843 -0.5070256 1.2206355
000030 a6 27 20 3f 22 3d b1 3f f9 c0 ec 3e 39 66 12 3f
       0.625605 1.3846781 0.46240976 0.5718723
000040 a0 9e 64 3f 3b cd 4c bf de ba da 3d af 71 96 3e
       0.8930454 -0.80000657 0.10680173 0.2938361
000050 f2 dd af bf fe f4 50 bf ef e3 6c 3f 64 b4 39 3f
       -1.3739607 -0.8162383 0.925353 0.7254088
000060 12 09 c2 bf 87 16 91 3f 13 1b 0b bf 13 e7 2c bf
       -1.5159018 1.1335 -0.54338187 -0.6754009
000070 ac 02 bf 3f b1 df 18 3e f5 f9 a9 3f 44 28 3a 3f
       1.492269 0.14929081 1.3279406 0.7271769
000080 0b 86 79 bd 1a d2 cd bf f5 36 83 3f 20 c2 db 3e
       -0.06091885 -1.6079743 1.0251147 0.42921543
000090 9b 43 32 3f a4 0d bb bf 27 2c 69 3f 51 8d 6d 3f
       0.6963441 -1.4613538 0.91082996 0.92793757
0000a0 e5 46 bb 3f a0 1b 29 be 7a c5 75 3f 3f 91 60 3f
       1.463101 -0.16514444 0.9600445 0.8772163
0000b0 f4 e6 d2 3f 65 8a 74 3f b7 09 a0 bf a4 c5 e3 3f
       1.6476731 0.95523673 -1.2502965 1.779469
0000c0 cc 53 70 be 0b 1a a7 3f 6c 83 07 3f 32 70 b7 3f
       -0.23469466 1.3054823 0.5293491 1.4331114
0000d0 2f ea dc bf 08 b0 18 3f c0 e8 76 be 89 55 ce 3f
       -1.7258967 0.596436 -0.24112225 1.6119853
0000e0 ea dc 85 3e 17 44 08 be 5a f9 cc bc ae d2 09 bf
       0.26145107 -0.13307224 -0.025021244 -0.53837097
0000f0 6f 45 7a be da ac 8d bf 1a d0 d6 3f cb a6 92 3f
       -0.2444055 -1.1068375 1.6782258 1.1457151

l2.bias f4 [8]
000000 ff 82 5b 3f a6 8e da 3e 7f 5e 9a 3e 4a d0 c4 3e
       0.8574676 0.42686957 0.3015022 0.38440162
000010 8c 18 b0 3e 72 0e 4f bd c5 c8 04 3f bd 82 ea 3e
       0.34393728 -0.050550885 0.5186885 0.4580287

l3.weight f4 [16, 8]
000000 85 72 4e 3f 51 cf 46 be 20 e1 9c be a4 a6 dd 3d
       0.8064349 -0.19415022 -0.30640507 0.108228
000010 d1 ef 4c be d6 91 ea bf 78 de 72 be fd 52 c3 3e
       -0.20013358 -1.8325756 -0.23717678 0.38149253
000020 c8 9b eb be ba 7d 41 3f b4 21 06 c0 b0 2c 37 3e
       -0.4601729 0.7558247 -2.095807 0.1788814
000030 a6 16 96 bf 3f 7e 33 3e 56 ce eb 3d 97 ad 03 c0
       -1.1725662 0.17528628 0.11513965 -2.05747
000040 a3 2d 62 3e f4 71 1f 3f d8 7a 83 bf 4f d7 ac bf
       0.22087722 0.62283254 -1.0271864 -1.3503207
000050 83 e7 95 bf 4c 14 27 3f 2f 81 77 bf d1 62 95 bf
       -1.1711277 0.65265346 -0.96681494 -1.1670781
000060 d4 ad e6 bf ee 1f b5 3e 88 02 e3 bf 8d db 48 3f
       -1.8021798 0.35375923 -1.7735147 0.7846001
000070 22 5d 5c bf 72 00 89 3d 6c a2 e8 be 63 27 a9 be
       -0.8607961 0.06689538 -0.45436418 -0.33037862
000080 6b b0 37 3f cd 6a d1 bf bc c1 a5 bf e8 f4 81 bf
       0.7175357 -1.6360718 -1.2949748 -1.0152864
000090 5f fb 16 3f 44 7d 12 3f fd 6a 1e bf 15 75 98 bf
       0.5897731 0.5722239 -0.61882 -1.1910731
0000a0 40 da 5a be 5b 67 fa be 40 75 84 bf 29 5d 94 3e
       -0.21372318 -0.4890698 -1.0348282 0.28977326
0000b0 93 22 1f 3f e0 32 bb 3b 1a 28 b8 bf d6 fa 94 3e
       0.6216213 0.005712852 -1.4387238 0.29097623
0000c0 bb 93 6d bf db 42 ea 3e 12 6e ce be 49 28 ce bc
       -0.92803544 0.45754132 -0.40318352 -0.025165694
0000d0 53 b3 8c bf 05 37 37 bf 5f 18 35 3f 4b a0 c8 3e
       -1.0992225 -0.7156833 0.7074031 0.39184794
0000e0 9e c6 71 3f 2b eb 0d 3f 3e 09 97 bf 12 68 62 bf
       0.9444369 0.5543696 -1.1799695 -0.8844005
0000f0 e5 d9 5e bf c1 18 68 bf f1 f1 09 3f 7f 3f c8 bf
       -0.8705123 -0.9066277 0.538848 -1.5644377
000100 d4 cc 35 3e b5 75 81 bf df 25 0c 3e e5 01 be bf
       0.17753917 -1.0114046 0.13686322 -1.4844328
000110 5d 5e e3 3e e0 8d 45 be 99 cc d1 3e c9 77 bb 3e
       0.4440793 -0.19292402 0.40976408 0.36614826
000120 93 1d 0f 3f 81 ba b7 bf 09 72 37 3f f5 e7 64 bf
       0.559045 -1.4353791 0.7165838 -0.8941644
000130 f4 98 cc 3e 53 46 8a bf ef cb ac bf 46 0f 58 3f
       0.39960444 -1.0802711 -1.3499736 0.84398305
000140 25 b7 2a bf 7d ea 58 bf d5 cd e0 be a0 72 18 bf
       -0.66685706 -0.847328 -0.43907037 -0.59549904
000150 62 9e b6 be 36 cb 6d bf 16 5f 11 bf 2f 14 88 be
       -0.35667711 -0.928882 -0.56785715 -0.265779
000160 c2 ec 65 bf 28 5a c6 bd 8f 50 19 3f 21 ae 39 bd
       -0.8981439 -0.09685165 0.5988855 -0.045332078
000170 83 ae 28 3f f0 2a af bf 26 7c 8a bd 4b 29 12 3f
       0.65891284 -1.3684978 -0.06761961 0.5709426
000180 7c b8 6f bf 48 10 3c be 8b b5 c9 bf 5b 2d 6f 3f
       -0.93640876 -0.18365586 -1.5758528 0.9342858
000190 7f b9 1b 3e 39 e2 c9 bf 69 bf 01 bf 69 d7 38 3f
       0.1520748 -1.5772163 -0.50682694 0.7220369
0001a0 c5 0d 32 be 07 bf b8 3e fa 2a a6 bf b5 d0 4c bf
       -0.17388065 0.36083242 -1.2981865 -0.8000596
0001b0 92 49 09 3f 4a b0 14 3e 81 5f 00 3d cb 75 dc be
       0.53627884 0.14520374 0.03134108 -0.4305862
0001c0 7a 73 82 bf b4 32 e2 bf 06 b3 98 be 8f 13 52 be
       -1.0191491 -1.7671723 -0.29824084 -0.20515274
0001d0 66 0d 32 bf 0f d0 21 3f 50 b9 29 3f b1 bf 36 bd
       -0.69551694 0.632081 0.6629839 -0.044616405
0001e0 81 32 d8 3e d3 96 f9 be 28 51 16 bf 4c 9a 1f c0
       0.4222603 -0.48747882 -0.58717585 -2.4937925
0001f0 68 36 ac bf a2 01 be 3e 5b 49 4e 3f 75 94 5d bf
       -1.3454103 0.3711062 0.8058068 -0.8655465

l3.bias f4 [16]
000000 d4 cd f7 3e 06 11 bf be b8 da 33 3e ac 2d 82 3e
       0.48399222 -0.37317675 0.17563903 0.2542547
000010 b6 e2 92 3e 90 a3 a2 be 9d 0f a0 3e 5c a1 e5 3e
       0.28688592 -0.31765413 0.31261912 0.4484967
000020 4e 18 cb be 7d 1b 26 3c a7 fc 99 be 18 4a 8f be
       -0.3966698 0.01013839 -0.3007557 -0.27986217
000030 75 a7 34 3e e8 dd f0 be f9 f8 ac 3e 7e 5d 9b be
       0.17642005 -0.470443 0.337837 -0.30344766
